Wed Nov 26 13:16:16 JST 2014
[bc306.hpc.vpl.nii.ac.jp] [1346417] [python deepcaffe_predict.py trecvidmed11 test 0 31800]
/net/per610a/export/das11f/plsang/codes/deeptest
WARNING: Logging before InitGoogleLogging() is written to STDERR
I1126 13:16:24.749763  5646 net.cpp:39] Initializing net from parameters: 
name: "CaffeNet"
layers {
  bottom: "data"
  top: "conv1"
  name: "conv1"
  type: CONVOLUTION
  convolution_param {
    num_output: 96
    kernel_size: 11
    stride: 4
  }
}
layers {
  bottom: "conv1"
  top: "conv1"
  name: "relu1"
  type: RELU
}
layers {
  bottom: "conv1"
  top: "pool1"
  name: "pool1"
  type: POOLING
  pooling_param {
    pool: MAX
    kernel_size: 3
    stride: 2
  }
}
layers {
  bottom: "pool1"
  top: "norm1"
  name: "norm1"
  type: LRN
  lrn_param {
    local_size: 5
    alpha: 0.0001
    beta: 0.75
  }
}
layers {
  bottom: "norm1"
  top: "conv2"
  name: "conv2"
  type: CONVOLUTION
  convolution_param {
    num_output: 256
    pad: 2
    kernel_size: 5
    group: 2
  }
}
layers {
  bottom: "conv2"
  top: "conv2"
  name: "relu2"
  type: RELU
}
layers {
  bottom: "conv2"
  top: "pool2"
  name: "pool2"
  type: POOLING
  pooling_param {
    pool: MAX
    kernel_size: 3
    stride: 2
  }
}
layers {
  bottom: "pool2"
  top: "norm2"
  name: "norm2"
  type: LRN
  lrn_param {
    local_size: 5
    alpha: 0.0001
    beta: 0.75
  }
}
layers {
  bottom: "norm2"
  top: "conv3"
  name: "conv3"
  type: CONVOLUTION
  convolution_param {
    num_output: 384
    pad: 1
    kernel_size: 3
  }
}
layers {
  bottom: "conv3"
  top: "conv3"
  name: "relu3"
  type: RELU
}
layers {
  bottom: "conv3"
  top: "conv4"
  name: "conv4"
  type: CONVOLUTION
  convolution_param {
    num_output: 384
    pad: 1
    kernel_size: 3
    group: 2
  }
}
layers {
  bottom: "conv4"
  top: "conv4"
  name: "relu4"
  type: RELU
}
layers {
  bottom: "conv4"
  top: "conv5"
  name: "conv5"
  type: CONVOLUTION
  convolution_param {
    num_output: 256
    pad: 1
    kernel_size: 3
    group: 2
  }
}
layers {
  bottom: "conv5"
  top: "conv5"
  name: "relu5"
  type: RELU
}
layers {
  bottom: "conv5"
  top: "pool5"
  name: "pool5"
  type: POOLING
  pooling_param {
    pool: MAX
    kernel_size: 3
    stride: 2
  }
}
layers {
  bottom: "pool5"
  top: "fc6"
  name: "fc6"
  type: INNER_PRODUCT
  inner_product_param {
    num_output: 4096
  }
}
layers {
  bottom: "fc6"
  top: "fc6"
  name: "relu6"
  type: RELU
}
layers {
  bottom: "fc6"
  top: "fc6"
  name: "drop6"
  type: DROPOUT
  dropout_param {
    dropout_ratio: 0.5
  }
}
layers {
  bottom: "fc6"
  top: "fc7"
  name: "fc7"
  type: INNER_PRODUCT
  inner_product_param {
    num_output: 4096
  }
}
layers {
  bottom: "fc7"
  top: "fc7"
  name: "relu7"
  type: RELU
}
layers {
  bottom: "fc7"
  top: "fc7"
  name: "drop7"
  type: DROPOUT
  dropout_param {
    dropout_ratio: 0.5
  }
}
layers {
  bottom: "fc7"
  top: "fc8"
  name: "fc8"
  type: INNER_PRODUCT
  inner_product_param {
    num_output: 1000
  }
}
layers {
  bottom: "fc8"
  top: "prob"
  name: "prob"
  type: SOFTMAX
}
input: "data"
input_dim: 10
input_dim: 3
input_dim: 227
input_dim: 227
I1126 13:16:24.750205  5646 net.cpp:358] Input 0 -> data
I1126 13:16:24.750299  5646 net.cpp:56] Memory required for data: 0
I1126 13:16:24.750424  5646 net.cpp:67] Creating Layer conv1
I1126 13:16:24.750444  5646 net.cpp:394] conv1 <- data
I1126 13:16:24.750480  5646 net.cpp:356] conv1 -> conv1
I1126 13:16:24.750519  5646 net.cpp:96] Setting up conv1
I1126 13:16:24.750879  5646 net.cpp:103] Top shape: 10 96 55 55 (2904000)
I1126 13:16:24.750895  5646 net.cpp:113] Memory required for data: 11616000
I1126 13:16:24.750964  5646 net.cpp:67] Creating Layer relu1
I1126 13:16:24.750982  5646 net.cpp:394] relu1 <- conv1
I1126 13:16:24.751013  5646 net.cpp:345] relu1 -> conv1 (in-place)
I1126 13:16:24.751036  5646 net.cpp:96] Setting up relu1
I1126 13:16:24.751052  5646 net.cpp:103] Top shape: 10 96 55 55 (2904000)
I1126 13:16:24.751061  5646 net.cpp:113] Memory required for data: 23232000
I1126 13:16:24.751091  5646 net.cpp:67] Creating Layer pool1
I1126 13:16:24.751106  5646 net.cpp:394] pool1 <- conv1
I1126 13:16:24.751140  5646 net.cpp:356] pool1 -> pool1
I1126 13:16:24.751173  5646 net.cpp:96] Setting up pool1
I1126 13:16:24.751205  5646 net.cpp:103] Top shape: 10 96 27 27 (699840)
I1126 13:16:24.751215  5646 net.cpp:113] Memory required for data: 26031360
I1126 13:16:24.751240  5646 net.cpp:67] Creating Layer norm1
I1126 13:16:24.751255  5646 net.cpp:394] norm1 <- pool1
I1126 13:16:24.751283  5646 net.cpp:356] norm1 -> norm1
I1126 13:16:24.751310  5646 net.cpp:96] Setting up norm1
I1126 13:16:24.751328  5646 net.cpp:103] Top shape: 10 96 27 27 (699840)
I1126 13:16:24.751338  5646 net.cpp:113] Memory required for data: 28830720
I1126 13:16:24.751370  5646 net.cpp:67] Creating Layer conv2
I1126 13:16:24.751389  5646 net.cpp:394] conv2 <- norm1
I1126 13:16:24.751420  5646 net.cpp:356] conv2 -> conv2
I1126 13:16:24.751452  5646 net.cpp:96] Setting up conv2
I1126 13:16:24.753846  5646 net.cpp:103] Top shape: 10 256 27 27 (1866240)
I1126 13:16:24.753867  5646 net.cpp:113] Memory required for data: 36295680
I1126 13:16:24.753914  5646 net.cpp:67] Creating Layer relu2
I1126 13:16:24.753931  5646 net.cpp:394] relu2 <- conv2
I1126 13:16:24.753958  5646 net.cpp:345] relu2 -> conv2 (in-place)
I1126 13:16:24.753980  5646 net.cpp:96] Setting up relu2
I1126 13:16:24.753993  5646 net.cpp:103] Top shape: 10 256 27 27 (1866240)
I1126 13:16:24.754000  5646 net.cpp:113] Memory required for data: 43760640
I1126 13:16:24.754021  5646 net.cpp:67] Creating Layer pool2
I1126 13:16:24.754034  5646 net.cpp:394] pool2 <- conv2
I1126 13:16:24.754065  5646 net.cpp:356] pool2 -> pool2
I1126 13:16:24.754091  5646 net.cpp:96] Setting up pool2
I1126 13:16:24.754112  5646 net.cpp:103] Top shape: 10 256 13 13 (432640)
I1126 13:16:24.754122  5646 net.cpp:113] Memory required for data: 45491200
I1126 13:16:24.754144  5646 net.cpp:67] Creating Layer norm2
I1126 13:16:24.754158  5646 net.cpp:394] norm2 <- pool2
I1126 13:16:24.754185  5646 net.cpp:356] norm2 -> norm2
I1126 13:16:24.754211  5646 net.cpp:96] Setting up norm2
I1126 13:16:24.754228  5646 net.cpp:103] Top shape: 10 256 13 13 (432640)
I1126 13:16:24.754237  5646 net.cpp:113] Memory required for data: 47221760
I1126 13:16:24.754266  5646 net.cpp:67] Creating Layer conv3
I1126 13:16:24.754281  5646 net.cpp:394] conv3 <- norm2
I1126 13:16:24.754310  5646 net.cpp:356] conv3 -> conv3
I1126 13:16:24.754336  5646 net.cpp:96] Setting up conv3
I1126 13:16:24.761075  5646 net.cpp:103] Top shape: 10 384 13 13 (648960)
I1126 13:16:24.761092  5646 net.cpp:113] Memory required for data: 49817600
I1126 13:16:24.761142  5646 net.cpp:67] Creating Layer relu3
I1126 13:16:24.761157  5646 net.cpp:394] relu3 <- conv3
I1126 13:16:24.761185  5646 net.cpp:345] relu3 -> conv3 (in-place)
I1126 13:16:24.761206  5646 net.cpp:96] Setting up relu3
I1126 13:16:24.761219  5646 net.cpp:103] Top shape: 10 384 13 13 (648960)
I1126 13:16:24.761227  5646 net.cpp:113] Memory required for data: 52413440
I1126 13:16:24.761250  5646 net.cpp:67] Creating Layer conv4
I1126 13:16:24.761262  5646 net.cpp:394] conv4 <- conv3
I1126 13:16:24.761291  5646 net.cpp:356] conv4 -> conv4
I1126 13:16:24.761325  5646 net.cpp:96] Setting up conv4
I1126 13:16:24.765430  5646 net.cpp:103] Top shape: 10 384 13 13 (648960)
I1126 13:16:24.765445  5646 net.cpp:113] Memory required for data: 55009280
I1126 13:16:24.765472  5646 net.cpp:67] Creating Layer relu4
I1126 13:16:24.765485  5646 net.cpp:394] relu4 <- conv4
I1126 13:16:24.765507  5646 net.cpp:345] relu4 -> conv4 (in-place)
I1126 13:16:24.765524  5646 net.cpp:96] Setting up relu4
I1126 13:16:24.765533  5646 net.cpp:103] Top shape: 10 384 13 13 (648960)
I1126 13:16:24.765539  5646 net.cpp:113] Memory required for data: 57605120
I1126 13:16:24.765555  5646 net.cpp:67] Creating Layer conv5
I1126 13:16:24.765565  5646 net.cpp:394] conv5 <- conv4
I1126 13:16:24.765585  5646 net.cpp:356] conv5 -> conv5
I1126 13:16:24.765605  5646 net.cpp:96] Setting up conv5
I1126 13:16:24.768158  5646 net.cpp:103] Top shape: 10 256 13 13 (432640)
I1126 13:16:24.768172  5646 net.cpp:113] Memory required for data: 59335680
I1126 13:16:24.768214  5646 net.cpp:67] Creating Layer relu5
I1126 13:16:24.768226  5646 net.cpp:394] relu5 <- conv5
I1126 13:16:24.768247  5646 net.cpp:345] relu5 -> conv5 (in-place)
I1126 13:16:24.768267  5646 net.cpp:96] Setting up relu5
I1126 13:16:24.768277  5646 net.cpp:103] Top shape: 10 256 13 13 (432640)
I1126 13:16:24.768283  5646 net.cpp:113] Memory required for data: 61066240
I1126 13:16:24.768301  5646 net.cpp:67] Creating Layer pool5
I1126 13:16:24.768311  5646 net.cpp:394] pool5 <- conv5
I1126 13:16:24.768332  5646 net.cpp:356] pool5 -> pool5
I1126 13:16:24.768352  5646 net.cpp:96] Setting up pool5
I1126 13:16:24.768370  5646 net.cpp:103] Top shape: 10 256 6 6 (92160)
I1126 13:16:24.768379  5646 net.cpp:113] Memory required for data: 61434880
I1126 13:16:24.768396  5646 net.cpp:67] Creating Layer fc6
I1126 13:16:24.768406  5646 net.cpp:394] fc6 <- pool5
I1126 13:16:24.768427  5646 net.cpp:356] fc6 -> fc6
I1126 13:16:24.768446  5646 net.cpp:96] Setting up fc6
I1126 13:16:24.977442  5646 net.cpp:103] Top shape: 10 4096 1 1 (40960)
I1126 13:16:24.977484  5646 net.cpp:113] Memory required for data: 61598720
I1126 13:16:24.977576  5646 net.cpp:67] Creating Layer relu6
I1126 13:16:24.977597  5646 net.cpp:394] relu6 <- fc6
I1126 13:16:24.977648  5646 net.cpp:345] relu6 -> fc6 (in-place)
I1126 13:16:24.977673  5646 net.cpp:96] Setting up relu6
I1126 13:16:24.977684  5646 net.cpp:103] Top shape: 10 4096 1 1 (40960)
I1126 13:16:24.977690  5646 net.cpp:113] Memory required for data: 61762560
I1126 13:16:24.977715  5646 net.cpp:67] Creating Layer drop6
I1126 13:16:24.977725  5646 net.cpp:394] drop6 <- fc6
I1126 13:16:24.977746  5646 net.cpp:345] drop6 -> fc6 (in-place)
I1126 13:16:24.977763  5646 net.cpp:96] Setting up drop6
I1126 13:16:24.977778  5646 net.cpp:103] Top shape: 10 4096 1 1 (40960)
I1126 13:16:24.977784  5646 net.cpp:113] Memory required for data: 61926400
I1126 13:16:24.977805  5646 net.cpp:67] Creating Layer fc7
I1126 13:16:24.977815  5646 net.cpp:394] fc7 <- fc6
I1126 13:16:24.977840  5646 net.cpp:356] fc7 -> fc7
I1126 13:16:24.977865  5646 net.cpp:96] Setting up fc7
I1126 13:16:25.070925  5646 net.cpp:103] Top shape: 10 4096 1 1 (40960)
I1126 13:16:25.070971  5646 net.cpp:113] Memory required for data: 62090240
I1126 13:16:25.071037  5646 net.cpp:67] Creating Layer relu7
I1126 13:16:25.071058  5646 net.cpp:394] relu7 <- fc7
I1126 13:16:25.071107  5646 net.cpp:345] relu7 -> fc7 (in-place)
I1126 13:16:25.071131  5646 net.cpp:96] Setting up relu7
I1126 13:16:25.071142  5646 net.cpp:103] Top shape: 10 4096 1 1 (40960)
I1126 13:16:25.071148  5646 net.cpp:113] Memory required for data: 62254080
I1126 13:16:25.071171  5646 net.cpp:67] Creating Layer drop7
I1126 13:16:25.071182  5646 net.cpp:394] drop7 <- fc7
I1126 13:16:25.071200  5646 net.cpp:345] drop7 -> fc7 (in-place)
I1126 13:16:25.071218  5646 net.cpp:96] Setting up drop7
I1126 13:16:25.071229  5646 net.cpp:103] Top shape: 10 4096 1 1 (40960)
I1126 13:16:25.071236  5646 net.cpp:113] Memory required for data: 62417920
I1126 13:16:25.071257  5646 net.cpp:67] Creating Layer fc8
I1126 13:16:25.071266  5646 net.cpp:394] fc8 <- fc7
I1126 13:16:25.071288  5646 net.cpp:356] fc8 -> fc8
I1126 13:16:25.071315  5646 net.cpp:96] Setting up fc8
I1126 13:16:25.094254  5646 net.cpp:103] Top shape: 10 1000 1 1 (10000)
I1126 13:16:25.094296  5646 net.cpp:113] Memory required for data: 62457920
I1126 13:16:25.094359  5646 net.cpp:67] Creating Layer prob
I1126 13:16:25.094382  5646 net.cpp:394] prob <- fc8
I1126 13:16:25.094427  5646 net.cpp:356] prob -> prob
I1126 13:16:25.094460  5646 net.cpp:96] Setting up prob
I1126 13:16:25.094491  5646 net.cpp:103] Top shape: 10 1000 1 1 (10000)
I1126 13:16:25.094498  5646 net.cpp:113] Memory required for data: 62497920
I1126 13:16:25.094511  5646 net.cpp:172] prob does not need backward computation.
I1126 13:16:25.094518  5646 net.cpp:172] fc8 does not need backward computation.
I1126 13:16:25.094524  5646 net.cpp:172] drop7 does not need backward computation.
I1126 13:16:25.094530  5646 net.cpp:172] relu7 does not need backward computation.
…
